# YOLOv8n model config for training from scratch on your custom dataset
# This config is based on the default ultralytics yolov8n.yaml, but with random initialization (no pretrained weights)

# Number of classes (should match your dataset)
nc: 10
# Names of classes (should match your data config)
names: ["bike", "bus", "car", "motor", "person", "rider", "traffic light", "traffic sign", "train", "truck"]

# Model architecture
backbone:
  # [from, number, module, args]
  [ [ -1, 1, Conv, [64, 3, 2] ],
    [ -1, 1, Conv, [64, 3, 2] ],
    [ -1, 3, Conv, [128, 3, 1] ],
    [ -1, 1, Conv, [128, 3, 2] ],
    [ -1, 6, C2f, [128, True] ],
    [ -1, 1, Conv, [256, 3, 2] ],
    [ -1, 6, C2f, [256, True] ],
    [ -1, 1, Conv, [512, 3, 2] ],
    [ -1, 3, C2f, [512, True] ],
    [ -1, 1, SPPF, [512, 5] ] ]

head:
  [ [ -1, 1, Conv, [256, 1, 1] ],
    [ -1, 1, nn.Upsample, [None, 2, 'nearest'] ],
    [ [ -1, 6 ], 1, Concat, [1] ],
    [ -1, 3, C2f, [256] ],
    [ -1, 1, Conv, [128, 1, 1] ],
    [ -1, 1, nn.Upsample, [None, 2, 'nearest'] ],
    [ [ -1, 4 ], 1, Concat, [1] ],
    [ -1, 3, C2f, [128] ],
    [ -1, 1, Conv, [128, 3, 2] ],
    [ [ -1, 14 ], 1, Concat, [1] ],
    [ -1, 3, C2f, [256] ],
    [ -1, 1, Conv, [256, 3, 2] ],
    [ [ -1, 10 ], 1, Concat, [1] ],
    [ -1, 3, C2f, [512] ],
    [ [ 17, 20, 23 ], 1, Detect, [nc] ] ]

# No pretrained weights (from scratch)
pretrained: false
